…
I0422 02:54:34.790534  3275 net.cpp:49] Initializing net from parameters: 
name: "FCN-AlexNet-joint"
state {
  phase: TRAIN
}
layer {
  name: "data"
  type: "ImageData"
  top: "data"
  top: "jointLocation"
  include {
    phase: TRAIN
  }
  transform_param {
    mean_value: 104
    mean_value: 116
    mean_value: 122
  }
  image_data_param {
    source: "/home/mengxin1/HumanPoseDetect/preprocess/train_label_resized.txt"
    batch_size: 10
    shuffle: true
    root_folder: "/home/mengxin1/mpii_human_pose_v1_images_resized/"
    label_num: 48
  }
}
layer {
  name: "jointMap"
  type: "PositionToMap"
  bottom: "data"
  bottom: "jointLocation"
  top: "jointMap"
  gaussian_param {
    std: 25
    half_window_size: 50
  }
}
layer {
  name: "conv1"
  type: "Convolution"
  bottom: "data"
  top: "conv1"
  param {
    lr_mult: 1
    decay_mult: 1
  }
  param {
    lr_mult: 2
    decay_mult: 0
  }
  convolution_param {
    num_output: 96
    pad: 100
    kernel_size: 11
    stride: 4
    weight_filler {
      type: "gaussian"
      std: 0.01
    }
    bias_filler {
      type: "constant"
      value: 0
    }
  }
}
layer {
  name: "relu1"
  type: "ReLU"
  bottom: "conv1"
  top: "conv1"
}
layer {
  name: "pool1"
  type: "Pooling"
  bottom: "conv1"
  top: "pool1"
  pooling_param {
    pool: MAX
    kernel_size: 3
    stride: 2
  }
}
layer {
  name: "norm1"
  type: "LRN"
  bottom: "pool1"
  top: "norm1"
  lrn_param {
    local_size: 5
    alpha: 0.0001
    beta: 0.75
  }
}
layer {
  name: "conv2"
  type: "Convolution"
  bottom: "norm1"
  top: "conv2"
  param {
    lr_mult: 1
    decay_mult: 1
  }
  param {
    lr_mult: 2
    decay_mult: 0
  }
  convolution_param {
    num_output: 256
    pad: 2
    kernel_size: 5
    group: 2
    weight_filler {
      type: "gaussian"
      std: 0.01
    }
    bias_filler {
      type: "constant"
      value: 1
    }
  }
}
layer {
  name: "relu2"
  type: "ReLU"
  bottom: "conv2"
  top: "conv2"
}
layer {
  name: "pool2"
  type: "Pooling"
  bottom: "conv2"
  top: "pool2"
  pooling_param {
    pool: MAX
    kernel_size: 3
    stride: 2
  }
}
layer {
  name: "norm2"
  type: "LRN"
  bottom: "pool2"
  top: "norm2"
  lrn_param {
    local_size: 5
    alpha: 0.0001
    beta: 0.75
  }
}
layer {
  name: "conv3"
  type: "Convolution"
  bottom: "norm2"
  top: "conv3"
  param {
    lr_mult: 1
    decay_mult: 1
  }
  param {
    lr_mult: 2
    decay_mult: 0
  }
  convolution_param {
    num_output: 384
    pad: 1
    kernel_size: 3
    weight_filler {
      type: "gaussian"
      std: 0.01
    }
    bias_filler {
      type: "constant"
      value: 0
    }
  }
}
layer {
  name: "relu3"
  type: "ReLU"
  bottom: "conv3"
  top: "conv3"
}
layer {
  name: "cconv4"
  type: "Convolution"
  bottom: "conv3"
  top: "conv4"
  param {
    lr_mult: 1
    decay_mult: 1
  }
  param {
    lr_mult: 2
    decay_mult: 0
  }
  convolution_param {
    num_output: 384
    pad: 1
    kernel_size: 3
    group: 2
    weight_filler {
      type: "gaussian"
      std: 0.01
    }
    bias_filler {
      type: "constant"
      value: 1
    }
  }
}
layer {
  name: "relu4"
  type: "ReLU"
  bottom: "conv4"
  top: "conv4"
}
layer {
  name: "cconv5"
  type: "Convolution"
  bottom: "conv4"
  top: "conv5"
  param {
    lr_mult: 1
    decay_mult: 1
  }
  param {
    lr_mult: 2
    decay_mult: 0
  }
  convolution_param {
    num_output: 256
    pad: 1
    kernel_size: 3
    group: 2
    weight_filler {
      type: "gaussian"
      std: 0.01
    }
    bias_filler {
      type: "constant"
      value: 1
    }
  }
}
layer {
  name: "relu5"
  type: "ReLU"
  bottom: "conv5"
  top: "conv5"
}
layer {
  name: "pool5"
  type: "Pooling"
  bottom: "conv5"
  top: "pool5"
  pooling_param {
    pool: MAX
    kernel_size: 3
    stride: 2
  }
}
layer {
  name: "fcc6"
  type: "Convolution"
  bottom: "pool5"
  top: "fcc6"
  param {
    lr_mult: 1
    decay_mult: 1
  }
  param {
    lr_mult: 2
    decay_mult: 0
  }
  convolution_param {
    num_output: 4096
    kernel_size: 6
    weight_filler {
      type: "gaussian"
      std: 0.005
    }
    bias_filler {
      type: "constant"
      value: 1
    }
  }
}
layer {
  name: "relu6"
  type: "ReLU"
  bottom: "fcc6"
  top: "fcc6"
}
layer {
  name: "drop6"
  type: "Dropout"
  bottom: "fcc6"
  top: "fcc6"
  dropout_param {
    dropout_ratio: 0.5
  }
}
layer {
  name: "fcc7"
  type: "Convolution"
  bottom: "fcc6"
  top: "fcc7"
  param {
    lr_mult: 1
    decay_mult: 1
  }
  param {
    lr_mult: 2
    decay_mult: 0
  }
  convolution_param {
    num_output: 4096
    kernel_size: 1
    weight_filler {
      type: "gaussian"
      std: 0.005
    }
    bias_filler {
      type: "constant"
      value: 1
    }
  }
}
layer {
  name: "relu7"
  type: "ReLU"
  bottom: "fcc7"
  top: "fcc7"
}
layer {
  name: "drop7"
  type: "Dropout"
  bottom: "fcc7"
  top: "fcc7"
  dropout_param {
    dropout_ratio: 0.5
  }
}
layer {
  name: "score-fr"
  type: "Convolution"
  bottom: "fcc7"
  top: "score-fcc7"
  param {
    lr_mult: 1
    decay_mult: 1
  }
  param {
    lr_mult: 2
    decay_mult: 0
  }
  convolution_param {
    num_output: 16
    kernel_size: 1
    weight_filler {
      type: "gaussian"
      std: 0.005
    }
    bias_filler {
      type: "constant"
      value: 1
    }
    engine: CAFFE
  }
}
layer {
  name: "upsample"
  type: "Deconvolution"
  bottom: "score-fcc7"
  top: "bigscore"
  param {
    lr_mult: 0.1
    decay_mult: 1
  }
  param {
    lr_mult: 0.2
    decay_mult: 0
  }
  convolution_param {
    num_output: 16
    kernel_size: 63
    group: 16
    stride: 32
  }
}
layer {
  name: "crop"
  type: "Crop"
  bottom: "bigscore"
  bottom: "data"
  top: "score"
}
layer {
  name: "balance"
  type: "Balance"
  bottom: "score"
  bottom: "jointMap"
  top: "bscore"
}
layer {
  name: "loss"
  type: "EuclideanLoss"
  bottom: "bscore"
  bottom: "jointMap"
  top: "loss"
}
I0422 02:54:34.790675  3275 layer_factory.hpp:77] Creating layer data
I0422 02:54:34.790704  3275 net.cpp:91] Creating Layer data
I0422 02:54:34.790714  3275 net.cpp:399] data -> data
I0422 02:54:34.790730  3275 net.cpp:399] data -> jointLocation
I0422 02:54:34.790747  3275 image_data_layer.cpp:40] Opening file /home/mengxin1/HumanPoseDetect/preprocess/train_label_resized.txt
I0422 02:54:34.897294  3275 image_data_layer.cpp:57] Shuffling data
I0422 02:54:34.899595  3275 image_data_layer.cpp:62] A total of 9580 images.
I0422 02:54:35.001006  3275 image_data_layer.cpp:89] output data size: 10,3,512,512
I0422 02:54:35.105886  3275 net.cpp:141] Setting up data
I0422 02:54:35.105939  3275 net.cpp:148] Top shape: 10 3 512 512 (7864320)
I0422 02:54:35.105947  3275 net.cpp:148] Top shape: 10 48 1 1 (480)
I0422 02:54:35.105952  3275 net.cpp:156] Memory required for data: 31459200
I0422 02:54:35.105962  3275 layer_factory.hpp:77] Creating layer data_data_0_split
I0422 02:54:35.105983  3275 net.cpp:91] Creating Layer data_data_0_split
I0422 02:54:35.105989  3275 net.cpp:425] data_data_0_split <- data
I0422 02:54:35.105999  3275 net.cpp:399] data_data_0_split -> data_data_0_split_0
I0422 02:54:35.106014  3275 net.cpp:399] data_data_0_split -> data_data_0_split_1
I0422 02:54:35.106021  3275 net.cpp:399] data_data_0_split -> data_data_0_split_2
I0422 02:54:35.106223  3275 net.cpp:141] Setting up data_data_0_split
I0422 02:54:35.106235  3275 net.cpp:148] Top shape: 10 3 512 512 (7864320)
I0422 02:54:35.106240  3275 net.cpp:148] Top shape: 10 3 512 512 (7864320)
I0422 02:54:35.106246  3275 net.cpp:148] Top shape: 10 3 512 512 (7864320)
I0422 02:54:35.106250  3275 net.cpp:156] Memory required for data: 125831040
I0422 02:54:35.106254  3275 layer_factory.hpp:77] Creating layer jointMap
I0422 02:54:35.106264  3275 net.cpp:91] Creating Layer jointMap
I0422 02:54:35.106269  3275 net.cpp:425] jointMap <- data_data_0_split_0
I0422 02:54:35.106274  3275 net.cpp:425] jointMap <- jointLocation
I0422 02:54:35.106281  3275 net.cpp:399] jointMap -> jointMap
I0422 02:54:35.106319  3275 net.cpp:141] Setting up jointMap
I0422 02:54:35.106328  3275 net.cpp:148] Top shape: 10 16 512 512 (41943040)
I0422 02:54:35.106333  3275 net.cpp:156] Memory required for data: 293603200
I0422 02:54:35.106336  3275 layer_factory.hpp:77] Creating layer jointMap_jointMap_0_split
I0422 02:54:35.106343  3275 net.cpp:91] Creating Layer jointMap_jointMap_0_split
I0422 02:54:35.106348  3275 net.cpp:425] jointMap_jointMap_0_split <- jointMap
I0422 02:54:35.106354  3275 net.cpp:399] jointMap_jointMap_0_split -> jointMap_jointMap_0_split_0
I0422 02:54:35.106362  3275 net.cpp:399] jointMap_jointMap_0_split -> jointMap_jointMap_0_split_1
I0422 02:54:35.106411  3275 net.cpp:141] Setting up jointMap_jointMap_0_split
I0422 02:54:35.106420  3275 net.cpp:148] Top shape: 10 16 512 512 (41943040)
I0422 02:54:35.106426  3275 net.cpp:148] Top shape: 10 16 512 512 (41943040)
I0422 02:54:35.106429  3275 net.cpp:156] Memory required for data: 629147520
I0422 02:54:35.106433  3275 layer_factory.hpp:77] Creating layer conv1
I0422 02:54:35.106451  3275 net.cpp:91] Creating Layer conv1
I0422 02:54:35.106456  3275 net.cpp:425] conv1 <- data_data_0_split_1
I0422 02:54:35.106462  3275 net.cpp:399] conv1 -> conv1
I0422 02:54:35.484583  3275 net.cpp:141] Setting up conv1
I0422 02:54:35.484633  3275 net.cpp:148] Top shape: 10 96 176 176 (29736960)
I0422 02:54:35.484638  3275 net.cpp:156] Memory required for data: 748095360
I0422 02:54:35.484660  3275 layer_factory.hpp:77] Creating layer relu1
I0422 02:54:35.484678  3275 net.cpp:91] Creating Layer relu1
I0422 02:54:35.484683  3275 net.cpp:425] relu1 <- conv1
I0422 02:54:35.484693  3275 net.cpp:386] relu1 -> conv1 (in-place)
I0422 02:54:35.485195  3275 net.cpp:141] Setting up relu1
I0422 02:54:35.485208  3275 net.cpp:148] Top shape: 10 96 176 176 (29736960)
I0422 02:54:35.485213  3275 net.cpp:156] Memory required for data: 867043200
I0422 02:54:35.485219  3275 layer_factory.hpp:77] Creating layer pool1
I0422 02:54:35.485230  3275 net.cpp:91] Creating Layer pool1
I0422 02:54:35.485235  3275 net.cpp:425] pool1 <- conv1
I0422 02:54:35.485244  3275 net.cpp:399] pool1 -> pool1
I0422 02:54:35.485311  3275 net.cpp:141] Setting up pool1
I0422 02:54:35.485326  3275 net.cpp:148] Top shape: 10 96 88 88 (7434240)
I0422 02:54:35.485330  3275 net.cpp:156] Memory required for data: 896780160
I0422 02:54:35.485335  3275 layer_factory.hpp:77] Creating layer norm1
I0422 02:54:35.485347  3275 net.cpp:91] Creating Layer norm1
I0422 02:54:35.485352  3275 net.cpp:425] norm1 <- pool1
I0422 02:54:35.485359  3275 net.cpp:399] norm1 -> norm1
I0422 02:54:35.490134  3275 net.cpp:141] Setting up norm1
I0422 02:54:35.490151  3275 net.cpp:148] Top shape: 10 96 88 88 (7434240)
I0422 02:54:35.490156  3275 net.cpp:156] Memory required for data: 926517120
I0422 02:54:35.490161  3275 layer_factory.hpp:77] Creating layer conv2
I0422 02:54:35.490181  3275 net.cpp:91] Creating Layer conv2
I0422 02:54:35.490186  3275 net.cpp:425] conv2 <- norm1
I0422 02:54:35.490206  3275 net.cpp:399] conv2 -> conv2
I0422 02:54:35.517889  3275 net.cpp:141] Setting up conv2
I0422 02:54:35.517933  3275 net.cpp:148] Top shape: 10 256 88 88 (19824640)
I0422 02:54:35.517940  3275 net.cpp:156] Memory required for data: 1005815680
I0422 02:54:35.517958  3275 layer_factory.hpp:77] Creating layer relu2
I0422 02:54:35.517972  3275 net.cpp:91] Creating Layer relu2
I0422 02:54:35.517978  3275 net.cpp:425] relu2 <- conv2
I0422 02:54:35.517987  3275 net.cpp:386] relu2 -> conv2 (in-place)
I0422 02:54:35.521462  3275 net.cpp:141] Setting up relu2
I0422 02:54:35.521481  3275 net.cpp:148] Top shape: 10 256 88 88 (19824640)
I0422 02:54:35.521486  3275 net.cpp:156] Memory required for data: 1085114240
I0422 02:54:35.521492  3275 layer_factory.hpp:77] Creating layer pool2
I0422 02:54:35.521500  3275 net.cpp:91] Creating Layer pool2
I0422 02:54:35.521505  3275 net.cpp:425] pool2 <- conv2
I0422 02:54:35.521514  3275 net.cpp:399] pool2 -> pool2
I0422 02:54:35.521595  3275 net.cpp:141] Setting up pool2
I0422 02:54:35.521603  3275 net.cpp:148] Top shape: 10 256 44 44 (4956160)
I0422 02:54:35.521607  3275 net.cpp:156] Memory required for data: 1104938880
I0422 02:54:35.521612  3275 layer_factory.hpp:77] Creating layer norm2
I0422 02:54:35.521625  3275 net.cpp:91] Creating Layer norm2
I0422 02:54:35.521628  3275 net.cpp:425] norm2 <- pool2
I0422 02:54:35.521638  3275 net.cpp:399] norm2 -> norm2
I0422 02:54:35.530262  3275 net.cpp:141] Setting up norm2
I0422 02:54:35.530297  3275 net.cpp:148] Top shape: 10 256 44 44 (4956160)
I0422 02:54:35.530302  3275 net.cpp:156] Memory required for data: 1124763520
I0422 02:54:35.530309  3275 layer_factory.hpp:77] Creating layer conv3
I0422 02:54:35.530333  3275 net.cpp:91] Creating Layer conv3
I0422 02:54:35.530339  3275 net.cpp:425] conv3 <- norm2
I0422 02:54:35.530352  3275 net.cpp:399] conv3 -> conv3
I0422 02:54:35.568859  3275 net.cpp:141] Setting up conv3
I0422 02:54:35.568902  3275 net.cpp:148] Top shape: 10 384 44 44 (7434240)
I0422 02:54:35.568907  3275 net.cpp:156] Memory required for data: 1154500480
I0422 02:54:35.568927  3275 layer_factory.hpp:77] Creating layer relu3
I0422 02:54:35.568943  3275 net.cpp:91] Creating Layer relu3
I0422 02:54:35.568950  3275 net.cpp:425] relu3 <- conv3
I0422 02:54:35.568959  3275 net.cpp:386] relu3 -> conv3 (in-place)
I0422 02:54:35.572110  3275 net.cpp:141] Setting up relu3
I0422 02:54:35.572125  3275 net.cpp:148] Top shape: 10 384 44 44 (7434240)
I0422 02:54:35.572129  3275 net.cpp:156] Memory required for data: 1184237440
I0422 02:54:35.572134  3275 layer_factory.hpp:77] Creating layer cconv4
I0422 02:54:35.572154  3275 net.cpp:91] Creating Layer cconv4
I0422 02:54:35.572159  3275 net.cpp:425] cconv4 <- conv3
I0422 02:54:35.572168  3275 net.cpp:399] cconv4 -> conv4
I0422 02:54:35.609491  3275 net.cpp:141] Setting up cconv4
I0422 02:54:35.609539  3275 net.cpp:148] Top shape: 10 384 44 44 (7434240)
I0422 02:54:35.609544  3275 net.cpp:156] Memory required for data: 1213974400
I0422 02:54:35.609557  3275 layer_factory.hpp:77] Creating layer relu4
I0422 02:54:35.609571  3275 net.cpp:91] Creating Layer relu4
I0422 02:54:35.609577  3275 net.cpp:425] relu4 <- conv4
I0422 02:54:35.609586  3275 net.cpp:386] relu4 -> conv4 (in-place)
I0422 02:54:35.613252  3275 net.cpp:141] Setting up relu4
I0422 02:54:35.613270  3275 net.cpp:148] Top shape: 10 384 44 44 (7434240)
I0422 02:54:35.613276  3275 net.cpp:156] Memory required for data: 1243711360
I0422 02:54:35.613281  3275 layer_factory.hpp:77] Creating layer cconv5
I0422 02:54:35.613302  3275 net.cpp:91] Creating Layer cconv5
I0422 02:54:35.613308  3275 net.cpp:425] cconv5 <- conv4
I0422 02:54:35.613322  3275 net.cpp:399] cconv5 -> conv5
I0422 02:54:35.640739  3275 net.cpp:141] Setting up cconv5
I0422 02:54:35.640779  3275 net.cpp:148] Top shape: 10 256 44 44 (4956160)
I0422 02:54:35.640784  3275 net.cpp:156] Memory required for data: 1263536000
I0422 02:54:35.640804  3275 layer_factory.hpp:77] Creating layer relu5
I0422 02:54:35.640817  3275 net.cpp:91] Creating Layer relu5
I0422 02:54:35.640828  3275 net.cpp:425] relu5 <- conv5
I0422 02:54:35.640841  3275 net.cpp:386] relu5 -> conv5 (in-place)
I0422 02:54:35.645745  3275 net.cpp:141] Setting up relu5
I0422 02:54:35.645768  3275 net.cpp:148] Top shape: 10 256 44 44 (4956160)
I0422 02:54:35.645772  3275 net.cpp:156] Memory required for data: 1283360640
I0422 02:54:35.645778  3275 layer_factory.hpp:77] Creating layer pool5
I0422 02:54:35.645789  3275 net.cpp:91] Creating Layer pool5
I0422 02:54:35.645795  3275 net.cpp:425] pool5 <- conv5
I0422 02:54:35.645805  3275 net.cpp:399] pool5 -> pool5
I0422 02:54:35.645891  3275 net.cpp:141] Setting up pool5
I0422 02:54:35.645901  3275 net.cpp:148] Top shape: 10 256 22 22 (1239040)
I0422 02:54:35.645905  3275 net.cpp:156] Memory required for data: 1288316800
I0422 02:54:35.645910  3275 layer_factory.hpp:77] Creating layer fcc6
I0422 02:54:35.645928  3275 net.cpp:91] Creating Layer fcc6
I0422 02:54:35.645934  3275 net.cpp:425] fcc6 <- pool5
I0422 02:54:35.645941  3275 net.cpp:399] fcc6 -> fcc6
I0422 02:54:36.130867  3275 net.cpp:141] Setting up fcc6
I0422 02:54:36.130910  3275 net.cpp:148] Top shape: 10 4096 17 17 (11837440)
I0422 02:54:36.130915  3275 net.cpp:156] Memory required for data: 1335666560
I0422 02:54:36.130928  3275 layer_factory.hpp:77] Creating layer relu6
I0422 02:54:36.130941  3275 net.cpp:91] Creating Layer relu6
I0422 02:54:36.130947  3275 net.cpp:425] relu6 <- fcc6
I0422 02:54:36.130959  3275 net.cpp:386] relu6 -> fcc6 (in-place)
I0422 02:54:36.132666  3275 net.cpp:141] Setting up relu6
I0422 02:54:36.132678  3275 net.cpp:148] Top shape: 10 4096 17 17 (11837440)
I0422 02:54:36.132681  3275 net.cpp:156] Memory required for data: 1383016320
I0422 02:54:36.132686  3275 layer_factory.hpp:77] Creating layer drop6
I0422 02:54:36.132700  3275 net.cpp:91] Creating Layer drop6
I0422 02:54:36.132705  3275 net.cpp:425] drop6 <- fcc6
I0422 02:54:36.132714  3275 net.cpp:386] drop6 -> fcc6 (in-place)
I0422 02:54:36.132766  3275 net.cpp:141] Setting up drop6
I0422 02:54:36.132776  3275 net.cpp:148] Top shape: 10 4096 17 17 (11837440)
I0422 02:54:36.132779  3275 net.cpp:156] Memory required for data: 1430366080
I0422 02:54:36.132784  3275 layer_factory.hpp:77] Creating layer fcc7
I0422 02:54:36.132802  3275 net.cpp:91] Creating Layer fcc7
I0422 02:54:36.132807  3275 net.cpp:425] fcc7 <- fcc6
I0422 02:54:36.132814  3275 net.cpp:399] fcc7 -> fcc7
I0422 02:54:36.363464  3275 net.cpp:141] Setting up fcc7
I0422 02:54:36.363508  3275 net.cpp:148] Top shape: 10 4096 17 17 (11837440)
I0422 02:54:36.363514  3275 net.cpp:156] Memory required for data: 1477715840
I0422 02:54:36.363528  3275 layer_factory.hpp:77] Creating layer relu7
I0422 02:54:36.363541  3275 net.cpp:91] Creating Layer relu7
I0422 02:54:36.363548  3275 net.cpp:425] relu7 <- fcc7
I0422 02:54:36.363559  3275 net.cpp:386] relu7 -> fcc7 (in-place)
I0422 02:54:36.369340  3275 net.cpp:141] Setting up relu7
I0422 02:54:36.369357  3275 net.cpp:148] Top shape: 10 4096 17 17 (11837440)
I0422 02:54:36.369361  3275 net.cpp:156] Memory required for data: 1525065600
I0422 02:54:36.369366  3275 layer_factory.hpp:77] Creating layer drop7
I0422 02:54:36.369379  3275 net.cpp:91] Creating Layer drop7
I0422 02:54:36.369385  3275 net.cpp:425] drop7 <- fcc7
I0422 02:54:36.369390  3275 net.cpp:386] drop7 -> fcc7 (in-place)
I0422 02:54:36.369443  3275 net.cpp:141] Setting up drop7
I0422 02:54:36.369454  3275 net.cpp:148] Top shape: 10 4096 17 17 (11837440)
I0422 02:54:36.369458  3275 net.cpp:156] Memory required for data: 1572415360
I0422 02:54:36.369463  3275 layer_factory.hpp:77] Creating layer score-fr
I0422 02:54:36.369477  3275 net.cpp:91] Creating Layer score-fr
I0422 02:54:36.369482  3275 net.cpp:425] score-fr <- fcc7
I0422 02:54:36.369493  3275 net.cpp:399] score-fr -> score-fcc7
I0422 02:54:36.370615  3275 net.cpp:141] Setting up score-fr
I0422 02:54:36.370626  3275 net.cpp:148] Top shape: 10 16 17 17 (46240)
I0422 02:54:36.370630  3275 net.cpp:156] Memory required for data: 1572600320
I0422 02:54:36.370638  3275 layer_factory.hpp:77] Creating layer upsample
I0422 02:54:36.370656  3275 net.cpp:91] Creating Layer upsample
I0422 02:54:36.370661  3275 net.cpp:425] upsample <- score-fcc7
I0422 02:54:36.370667  3275 net.cpp:399] upsample -> bigscore
I0422 02:54:36.372690  3275 net.cpp:141] Setting up upsample
I0422 02:54:36.372709  3275 net.cpp:148] Top shape: 10 16 575 575 (52900000)
I0422 02:54:36.372714  3275 net.cpp:156] Memory required for data: 1784200320
I0422 02:54:36.372731  3275 layer_factory.hpp:77] Creating layer crop
I0422 02:54:36.372745  3275 net.cpp:91] Creating Layer crop
I0422 02:54:36.372750  3275 net.cpp:425] crop <- bigscore
I0422 02:54:36.372756  3275 net.cpp:425] crop <- data_data_0_split_2
I0422 02:54:36.372762  3275 net.cpp:399] crop -> score
I0422 02:54:36.372817  3275 net.cpp:141] Setting up crop
I0422 02:54:36.372829  3275 net.cpp:148] Top shape: 10 16 512 512 (41943040)
I0422 02:54:36.372833  3275 net.cpp:156] Memory required for data: 1951972480
I0422 02:54:36.372838  3275 layer_factory.hpp:77] Creating layer balance
I0422 02:54:36.372846  3275 net.cpp:91] Creating Layer balance
I0422 02:54:36.372851  3275 net.cpp:425] balance <- score
I0422 02:54:36.372858  3275 net.cpp:425] balance <- jointMap_jointMap_0_split_0
I0422 02:54:36.372864  3275 net.cpp:399] balance -> bscore
I0422 02:54:36.372926  3275 net.cpp:141] Setting up balance
I0422 02:54:36.372936  3275 net.cpp:148] Top shape: 10 16 512 512 (41943040)
I0422 02:54:36.372939  3275 net.cpp:156] Memory required for data: 2119744640
I0422 02:54:36.372943  3275 layer_factory.hpp:77] Creating layer loss
I0422 02:54:36.372954  3275 net.cpp:91] Creating Layer loss
I0422 02:54:36.372959  3275 net.cpp:425] loss <- bscore
I0422 02:54:36.372964  3275 net.cpp:425] loss <- jointMap_jointMap_0_split_1
I0422 02:54:36.372972  3275 net.cpp:399] loss -> loss
…
I0422 14:46:10.768913 32015 net.cpp:49] Initializing net from parameters: 
name: "FCN-AlexNet-joint"
state {
  phase: TRAIN
}
layer {
  name: "data"
  type: "ImageData"
  top: "data"
  top: "jointLocation"
  include {
    phase: TRAIN
  }
  transform_param {
    mean_value: 104
    mean_value: 116
    mean_value: 122
  }
  image_data_param {
    source: "/home/mengxin1/HumanPoseDetect/preprocess/train_label_resized.txt"
    batch_size: 15
    shuffle: true
    root_folder: "/home/mengxin1/mpii_human_pose_v1_images_resized/"
    label_num: 48
  }
}
layer {
  name: "jointMap"
  type: "PositionToMap"
  bottom: "data"
  bottom: "jointLocation"
  top: "jointMap"
  gaussian_param {
    std: 25
    half_window_size: 50
  }
}
layer {
  name: "conv1"
  type: "Convolution"
  bottom: "data"
  top: "conv1"
  param {
    lr_mult: 1
    decay_mult: 1
  }
  param {
    lr_mult: 2
    decay_mult: 0
  }
  convolution_param {
    num_output: 96
    pad: 100
    kernel_size: 11
    stride: 4
    weight_filler {
      type: "gaussian"
      std: 0.01
    }
    bias_filler {
      type: "constant"
      value: 0
    }
  }
}
layer {
  name: "relu1"
  type: "ReLU"
  bottom: "conv1"
  top: "conv1"
}
layer {
  name: "pool1"
  type: "Pooling"
  bottom: "conv1"
  top: "pool1"
  pooling_param {
    pool: MAX
    kernel_size: 3
    stride: 2
  }
}
layer {
  name: "norm1"
  type: "LRN"
  bottom: "pool1"
  top: "norm1"
  lrn_param {
    local_size: 5
    alpha: 0.0001
    beta: 0.75
  }
}
layer {
  name: "conv2"
  type: "Convolution"
  bottom: "norm1"
  top: "conv2"
  param {
    lr_mult: 1
    decay_mult: 1
  }
  param {
    lr_mult: 2
    decay_mult: 0
  }
  convolution_param {
    num_output: 256
    pad: 2
    kernel_size: 5
    group: 2
    weight_filler {
      type: "gaussian"
      std: 0.01
    }
    bias_filler {
      type: "constant"
      value: 1
    }
  }
}
layer {
  name: "relu2"
  type: "ReLU"
  bottom: "conv2"
  top: "conv2"
}
layer {
  name: "pool2"
  type: "Pooling"
  bottom: "conv2"
  top: "pool2"
  pooling_param {
    pool: MAX
    kernel_size: 3
    stride: 2
  }
}
layer {
  name: "norm2"
  type: "LRN"
  bottom: "pool2"
  top: "norm2"
  lrn_param {
    local_size: 5
    alpha: 0.0001
    beta: 0.75
  }
}
layer {
  name: "conv3"
  type: "Convolution"
  bottom: "norm2"
  top: "conv3"
  param {
    lr_mult: 1
    decay_mult: 1
  }
  param {
    lr_mult: 2
    decay_mult: 0
  }
  convolution_param {
    num_output: 384
    pad: 1
    kernel_size: 3
    weight_filler {
      type: "gaussian"
      std: 0.01
    }
    bias_filler {
      type: "constant"
      value: 0
    }
  }
}
layer {
  name: "relu3"
  type: "ReLU"
  bottom: "conv3"
  top: "conv3"
}
layer {
  name: "cconv4"
  type: "Convolution"
  bottom: "conv3"
  top: "conv4"
  param {
    lr_mult: 1
    decay_mult: 1
  }
  param {
    lr_mult: 2
    decay_mult: 0
  }
  convolution_param {
    num_output: 384
    pad: 1
    kernel_size: 3
    group: 2
    weight_filler {
      type: "gaussian"
      std: 0.01
    }
    bias_filler {
      type: "constant"
      value: 1
    }
  }
}
layer {
  name: "relu4"
  type: "ReLU"
  bottom: "conv4"
  top: "conv4"
}
layer {
  name: "cconv5"
  type: "Convolution"
  bottom: "conv4"
  top: "conv5"
  param {
    lr_mult: 1
    decay_mult: 1
  }
  param {
    lr_mult: 2
    decay_mult: 0
  }
  convolution_param {
    num_output: 256
    pad: 1
    kernel_size: 3
    group: 2
    weight_filler {
      type: "gaussian"
      std: 0.01
    }
    bias_filler {
      type: "constant"
      value: 1
    }
  }
}
layer {
  name: "relu5"
  type: "ReLU"
  bottom: "conv5"
  top: "conv5"
}
layer {
  name: "pool5"
  type: "Pooling"
  bottom: "conv5"
  top: "pool5"
  pooling_param {
    pool: MAX
    kernel_size: 3
    stride: 2
  }
}
layer {
  name: "fcc6"
  type: "Convolution"
  bottom: "pool5"
  top: "fcc6"
  param {
    lr_mult: 1
    decay_mult: 1
  }
  param {
    lr_mult: 2
    decay_mult: 0
  }
  convolution_param {
    num_output: 4096
    kernel_size: 6
    weight_filler {
      type: "gaussian"
      std: 0.005
    }
    bias_filler {
      type: "constant"
      value: 1
    }
  }
}
layer {
  name: "relu6"
  type: "ReLU"
  bottom: "fcc6"
  top: "fcc6"
}
layer {
  name: "drop6"
  type: "Dropout"
  bottom: "fcc6"
  top: "fcc6"
  dropout_param {
    dropout_ratio: 0.5
  }
}
layer {
  name: "fcc7"
  type: "Convolution"
  bottom: "fcc6"
  top: "fcc7"
  param {
    lr_mult: 1
    decay_mult: 1
  }
  param {
    lr_mult: 2
    decay_mult: 0
  }
  convolution_param {
    num_output: 4096
    kernel_size: 1
    weight_filler {
      type: "gaussian"
      std: 0.005
    }
    bias_filler {
      type: "constant"
      value: 1
    }
  }
}
layer {
  name: "relu7"
  type: "ReLU"
  bottom: "fcc7"
  top: "fcc7"
}
layer {
  name: "drop7"
  type: "Dropout"
  bottom: "fcc7"
  top: "fcc7"
  dropout_param {
    dropout_ratio: 0.5
  }
}
layer {
  name: "score-fr"
  type: "Convolution"
  bottom: "fcc7"
  top: "score-fcc7"
  param {
    lr_mult: 1
    decay_mult: 1
  }
  param {
    lr_mult: 2
    decay_mult: 0
  }
  convolution_param {
    num_output: 16
    kernel_size: 1
    weight_filler {
      type: "gaussian"
      std: 0.005
    }
    bias_filler {
      type: "constant"
      value: 1
    }
    engine: CAFFE
  }
}
layer {
  name: "upsample"
  type: "Deconvolution"
  bottom: "score-fcc7"
  top: "bigscore"
  param {
    lr_mult: 0.1
    decay_mult: 1
  }
  param {
    lr_mult: 0.2
    decay_mult: 0
  }
  convolution_param {
    num_output: 16
    kernel_size: 63
    group: 16
    stride: 32
  }
}
layer {
  name: "crop"
  type: "Crop"
  bottom: "bigscore"
  bottom: "data"
  top: "score"
}
layer {
  name: "balance"
  type: "Balance"
  bottom: "score"
  bottom: "jointMap"
  top: "bscore"
}
layer {
  name: "loss"
  type: "EuclideanLoss"
  bottom: "bscore"
  bottom: "jointMap"
  top: "loss"
}
I0422 14:46:10.769145 32015 layer_factory.hpp:77] Creating layer data
I0422 14:46:10.769183 32015 net.cpp:91] Creating Layer data
I0422 14:46:10.769197 32015 net.cpp:399] data -> data
I0422 14:46:10.769219 32015 net.cpp:399] data -> jointLocation
I0422 14:46:10.769242 32015 image_data_layer.cpp:40] Opening file /home/mengxin1/HumanPoseDetect/preprocess/train_label_resized.txt
I0422 14:46:10.877128 32015 image_data_layer.cpp:57] Shuffling data
I0422 14:46:10.880591 32015 image_data_layer.cpp:62] A total of 9580 images.
I0422 14:46:10.996608 32015 image_data_layer.cpp:89] output data size: 15,3,512,512
I0422 14:46:11.126932 32015 net.cpp:141] Setting up data
I0422 14:46:11.126994 32015 net.cpp:148] Top shape: 15 3 512 512 (11796480)
I0422 14:46:11.127003 32015 net.cpp:148] Top shape: 15 48 1 1 (720)
I0422 14:46:11.127007 32015 net.cpp:156] Memory required for data: 47188800
I0422 14:46:11.127017 32015 layer_factory.hpp:77] Creating layer data_data_0_split
I0422 14:46:11.127034 32015 net.cpp:91] Creating Layer data_data_0_split
I0422 14:46:11.127040 32015 net.cpp:425] data_data_0_split <- data
I0422 14:46:11.127050 32015 net.cpp:399] data_data_0_split -> data_data_0_split_0
I0422 14:46:11.127065 32015 net.cpp:399] data_data_0_split -> data_data_0_split_1
I0422 14:46:11.127073 32015 net.cpp:399] data_data_0_split -> data_data_0_split_2
I0422 14:46:11.127285 32015 net.cpp:141] Setting up data_data_0_split
I0422 14:46:11.127296 32015 net.cpp:148] Top shape: 15 3 512 512 (11796480)
I0422 14:46:11.127302 32015 net.cpp:148] Top shape: 15 3 512 512 (11796480)
I0422 14:46:11.127307 32015 net.cpp:148] Top shape: 15 3 512 512 (11796480)
I0422 14:46:11.127311 32015 net.cpp:156] Memory required for data: 188746560
I0422 14:46:11.127315 32015 layer_factory.hpp:77] Creating layer jointMap
I0422 14:46:11.127331 32015 net.cpp:91] Creating Layer jointMap
I0422 14:46:11.127336 32015 net.cpp:425] jointMap <- data_data_0_split_0
I0422 14:46:11.127341 32015 net.cpp:425] jointMap <- jointLocation
I0422 14:46:11.127347 32015 net.cpp:399] jointMap -> jointMap
I0422 14:46:11.127382 32015 net.cpp:141] Setting up jointMap
I0422 14:46:11.127391 32015 net.cpp:148] Top shape: 15 16 512 512 (62914560)
I0422 14:46:11.127395 32015 net.cpp:156] Memory required for data: 440404800
I0422 14:46:11.127399 32015 layer_factory.hpp:77] Creating layer jointMap_jointMap_0_split
I0422 14:46:11.127406 32015 net.cpp:91] Creating Layer jointMap_jointMap_0_split
I0422 14:46:11.127410 32015 net.cpp:425] jointMap_jointMap_0_split <- jointMap
I0422 14:46:11.127418 32015 net.cpp:399] jointMap_jointMap_0_split -> jointMap_jointMap_0_split_0
I0422 14:46:11.127424 32015 net.cpp:399] jointMap_jointMap_0_split -> jointMap_jointMap_0_split_1
I0422 14:46:11.127473 32015 net.cpp:141] Setting up jointMap_jointMap_0_split
I0422 14:46:11.127482 32015 net.cpp:148] Top shape: 15 16 512 512 (62914560)
I0422 14:46:11.127487 32015 net.cpp:148] Top shape: 15 16 512 512 (62914560)
I0422 14:46:11.127491 32015 net.cpp:156] Memory required for data: 943721280
I0422 14:46:11.127502 32015 layer_factory.hpp:77] Creating layer conv1
I0422 14:46:11.127521 32015 net.cpp:91] Creating Layer conv1
I0422 14:46:11.127526 32015 net.cpp:425] conv1 <- data_data_0_split_1
I0422 14:46:11.127533 32015 net.cpp:399] conv1 -> conv1
I0422 14:46:11.600947 32015 net.cpp:141] Setting up conv1
I0422 14:46:11.600985 32015 net.cpp:148] Top shape: 15 96 176 176 (44605440)
I0422 14:46:11.600989 32015 net.cpp:156] Memory required for data: 1122143040
I0422 14:46:11.601008 32015 layer_factory.hpp:77] Creating layer relu1
I0422 14:46:11.601027 32015 net.cpp:91] Creating Layer relu1
I0422 14:46:11.601032 32015 net.cpp:425] relu1 <- conv1
I0422 14:46:11.601040 32015 net.cpp:386] relu1 -> conv1 (in-place)
I0422 14:46:11.631469 32015 net.cpp:141] Setting up relu1
I0422 14:46:11.631508 32015 net.cpp:148] Top shape: 15 96 176 176 (44605440)
I0422 14:46:11.631515 32015 net.cpp:156] Memory required for data: 1300564800
I0422 14:46:11.631522 32015 layer_factory.hpp:77] Creating layer pool1
I0422 14:46:11.631544 32015 net.cpp:91] Creating Layer pool1
I0422 14:46:11.631551 32015 net.cpp:425] pool1 <- conv1
I0422 14:46:11.631562 32015 net.cpp:399] pool1 -> pool1
I0422 14:46:11.631690 32015 net.cpp:141] Setting up pool1
I0422 14:46:11.631701 32015 net.cpp:148] Top shape: 15 96 88 88 (11151360)
I0422 14:46:11.631705 32015 net.cpp:156] Memory required for data: 1345170240
I0422 14:46:11.631710 32015 layer_factory.hpp:77] Creating layer norm1
I0422 14:46:11.631723 32015 net.cpp:91] Creating Layer norm1
I0422 14:46:11.631728 32015 net.cpp:425] norm1 <- pool1
I0422 14:46:11.631734 32015 net.cpp:399] norm1 -> norm1
I0422 14:46:11.632311 32015 net.cpp:141] Setting up norm1
I0422 14:46:11.632326 32015 net.cpp:148] Top shape: 15 96 88 88 (11151360)
I0422 14:46:11.632331 32015 net.cpp:156] Memory required for data: 1389775680
I0422 14:46:11.632336 32015 layer_factory.hpp:77] Creating layer conv2
I0422 14:46:11.632357 32015 net.cpp:91] Creating Layer conv2
I0422 14:46:11.632362 32015 net.cpp:425] conv2 <- norm1
I0422 14:46:11.632370 32015 net.cpp:399] conv2 -> conv2
I0422 14:46:11.639494 32015 net.cpp:141] Setting up conv2
I0422 14:46:11.639510 32015 net.cpp:148] Top shape: 15 256 88 88 (29736960)
I0422 14:46:11.639515 32015 net.cpp:156] Memory required for data: 1508723520
I0422 14:46:11.639528 32015 layer_factory.hpp:77] Creating layer relu2
I0422 14:46:11.639538 32015 net.cpp:91] Creating Layer relu2
I0422 14:46:11.639542 32015 net.cpp:425] relu2 <- conv2
I0422 14:46:11.639554 32015 net.cpp:386] relu2 -> conv2 (in-place)
I0422 14:46:11.639900 32015 net.cpp:141] Setting up relu2
I0422 14:46:11.639912 32015 net.cpp:148] Top shape: 15 256 88 88 (29736960)
I0422 14:46:11.639917 32015 net.cpp:156] Memory required for data: 1627671360
I0422 14:46:11.639922 32015 layer_factory.hpp:77] Creating layer pool2
I0422 14:46:11.639932 32015 net.cpp:91] Creating Layer pool2
I0422 14:46:11.639937 32015 net.cpp:425] pool2 <- conv2
I0422 14:46:11.639945 32015 net.cpp:399] pool2 -> pool2
I0422 14:46:11.640012 32015 net.cpp:141] Setting up pool2
I0422 14:46:11.640022 32015 net.cpp:148] Top shape: 15 256 44 44 (7434240)
I0422 14:46:11.640027 32015 net.cpp:156] Memory required for data: 1657408320
I0422 14:46:11.640030 32015 layer_factory.hpp:77] Creating layer norm2
I0422 14:46:11.640040 32015 net.cpp:91] Creating Layer norm2
I0422 14:46:11.640045 32015 net.cpp:425] norm2 <- pool2
I0422 14:46:11.640053 32015 net.cpp:399] norm2 -> norm2
I0422 14:46:11.640270 32015 net.cpp:141] Setting up norm2
I0422 14:46:11.640281 32015 net.cpp:148] Top shape: 15 256 44 44 (7434240)
I0422 14:46:11.640285 32015 net.cpp:156] Memory required for data: 1687145280
I0422 14:46:11.640290 32015 layer_factory.hpp:77] Creating layer conv3
I0422 14:46:11.640303 32015 net.cpp:91] Creating Layer conv3
I0422 14:46:11.640308 32015 net.cpp:425] conv3 <- norm2
I0422 14:46:11.640318 32015 net.cpp:399] conv3 -> conv3
I0422 14:46:11.654187 32015 net.cpp:141] Setting up conv3
I0422 14:46:11.654224 32015 net.cpp:148] Top shape: 15 384 44 44 (11151360)
I0422 14:46:11.654235 32015 net.cpp:156] Memory required for data: 1731750720
I0422 14:46:11.654254 32015 layer_factory.hpp:77] Creating layer relu3
I0422 14:46:11.654268 32015 net.cpp:91] Creating Layer relu3
I0422 14:46:11.654275 32015 net.cpp:425] relu3 <- conv3
I0422 14:46:11.654284 32015 net.cpp:386] relu3 -> conv3 (in-place)
I0422 14:46:11.654631 32015 net.cpp:141] Setting up relu3
I0422 14:46:11.654646 32015 net.cpp:148] Top shape: 15 384 44 44 (11151360)
I0422 14:46:11.654651 32015 net.cpp:156] Memory required for data: 1776356160
I0422 14:46:11.654656 32015 layer_factory.hpp:77] Creating layer cconv4
I0422 14:46:11.654673 32015 net.cpp:91] Creating Layer cconv4
I0422 14:46:11.654678 32015 net.cpp:425] cconv4 <- conv3
I0422 14:46:11.654686 32015 net.cpp:399] cconv4 -> conv4
I0422 14:46:11.665719 32015 net.cpp:141] Setting up cconv4
I0422 14:46:11.665748 32015 net.cpp:148] Top shape: 15 384 44 44 (11151360)
I0422 14:46:11.665752 32015 net.cpp:156] Memory required for data: 1820961600
I0422 14:46:11.665763 32015 layer_factory.hpp:77] Creating layer relu4
I0422 14:46:11.665777 32015 net.cpp:91] Creating Layer relu4
I0422 14:46:11.665783 32015 net.cpp:425] relu4 <- conv4
I0422 14:46:11.665791 32015 net.cpp:386] relu4 -> conv4 (in-place)
I0422 14:46:11.666146 32015 net.cpp:141] Setting up relu4
I0422 14:46:11.666159 32015 net.cpp:148] Top shape: 15 384 44 44 (11151360)
I0422 14:46:11.666163 32015 net.cpp:156] Memory required for data: 1865567040
I0422 14:46:11.666168 32015 layer_factory.hpp:77] Creating layer cconv5
I0422 14:46:11.666191 32015 net.cpp:91] Creating Layer cconv5
I0422 14:46:11.666199 32015 net.cpp:425] cconv5 <- conv4
I0422 14:46:11.666208 32015 net.cpp:399] cconv5 -> conv5
I0422 14:46:11.674373 32015 net.cpp:141] Setting up cconv5
I0422 14:46:11.674388 32015 net.cpp:148] Top shape: 15 256 44 44 (7434240)
I0422 14:46:11.674393 32015 net.cpp:156] Memory required for data: 1895304000
I0422 14:46:11.674406 32015 layer_factory.hpp:77] Creating layer relu5
I0422 14:46:11.674417 32015 net.cpp:91] Creating Layer relu5
I0422 14:46:11.674422 32015 net.cpp:425] relu5 <- conv5
I0422 14:46:11.674427 32015 net.cpp:386] relu5 -> conv5 (in-place)
I0422 14:46:11.674764 32015 net.cpp:141] Setting up relu5
I0422 14:46:11.674777 32015 net.cpp:148] Top shape: 15 256 44 44 (7434240)
I0422 14:46:11.674782 32015 net.cpp:156] Memory required for data: 1925040960
I0422 14:46:11.674785 32015 layer_factory.hpp:77] Creating layer pool5
I0422 14:46:11.674798 32015 net.cpp:91] Creating Layer pool5
I0422 14:46:11.674803 32015 net.cpp:425] pool5 <- conv5
I0422 14:46:11.674809 32015 net.cpp:399] pool5 -> pool5
I0422 14:46:11.674877 32015 net.cpp:141] Setting up pool5
I0422 14:46:11.674887 32015 net.cpp:148] Top shape: 15 256 22 22 (1858560)
I0422 14:46:11.674891 32015 net.cpp:156] Memory required for data: 1932475200
I0422 14:46:11.674896 32015 layer_factory.hpp:77] Creating layer fcc6
I0422 14:46:11.674908 32015 net.cpp:91] Creating Layer fcc6
I0422 14:46:11.674913 32015 net.cpp:425] fcc6 <- pool5
I0422 14:46:11.674923 32015 net.cpp:399] fcc6 -> fcc6
I0422 14:46:12.160262 32015 net.cpp:141] Setting up fcc6
I0422 14:46:12.160307 32015 net.cpp:148] Top shape: 15 4096 17 17 (17756160)
I0422 14:46:12.160315 32015 net.cpp:156] Memory required for data: 2003499840
I0422 14:46:12.160328 32015 layer_factory.hpp:77] Creating layer relu6
I0422 14:46:12.160341 32015 net.cpp:91] Creating Layer relu6
I0422 14:46:12.160348 32015 net.cpp:425] relu6 <- fcc6
I0422 14:46:12.160357 32015 net.cpp:386] relu6 -> fcc6 (in-place)
I0422 14:46:12.161888 32015 net.cpp:141] Setting up relu6
I0422 14:46:12.161907 32015 net.cpp:148] Top shape: 15 4096 17 17 (17756160)
I0422 14:46:12.161912 32015 net.cpp:156] Memory required for data: 2074524480
I0422 14:46:12.161918 32015 layer_factory.hpp:77] Creating layer drop6
I0422 14:46:12.161934 32015 net.cpp:91] Creating Layer drop6
I0422 14:46:12.161939 32015 net.cpp:425] drop6 <- fcc6
I0422 14:46:12.161945 32015 net.cpp:386] drop6 -> fcc6 (in-place)
I0422 14:46:12.162012 32015 net.cpp:141] Setting up drop6
I0422 14:46:12.162029 32015 net.cpp:148] Top shape: 15 4096 17 17 (17756160)
I0422 14:46:12.162032 32015 net.cpp:156] Memory required for data: 2145549120
I0422 14:46:12.162036 32015 layer_factory.hpp:77] Creating layer fcc7
I0422 14:46:12.162055 32015 net.cpp:91] Creating Layer fcc7
I0422 14:46:12.162058 32015 net.cpp:425] fcc7 <- fcc6
I0422 14:46:12.162066 32015 net.cpp:399] fcc7 -> fcc7
I0422 14:46:12.395438 32015 net.cpp:141] Setting up fcc7
I0422 14:46:12.395490 32015 net.cpp:148] Top shape: 15 4096 17 17 (17756160)
I0422 14:46:12.395496 32015 net.cpp:156] Memory required for data: 2216573760
I0422 14:46:12.395510 32015 layer_factory.hpp:77] Creating layer relu7
I0422 14:46:12.395527 32015 net.cpp:91] Creating Layer relu7
I0422 14:46:12.395534 32015 net.cpp:425] relu7 <- fcc7
I0422 14:46:12.395547 32015 net.cpp:386] relu7 -> fcc7 (in-place)
I0422 14:46:12.396610 32015 net.cpp:141] Setting up relu7
I0422 14:46:12.396637 32015 net.cpp:148] Top shape: 15 4096 17 17 (17756160)
I0422 14:46:12.396641 32015 net.cpp:156] Memory required for data: 2287598400
I0422 14:46:12.396648 32015 layer_factory.hpp:77] Creating layer drop7
I0422 14:46:12.396662 32015 net.cpp:91] Creating Layer drop7
I0422 14:46:12.396667 32015 net.cpp:425] drop7 <- fcc7
I0422 14:46:12.396675 32015 net.cpp:386] drop7 -> fcc7 (in-place)
I0422 14:46:12.396739 32015 net.cpp:141] Setting up drop7
I0422 14:46:12.396751 32015 net.cpp:148] Top shape: 15 4096 17 17 (17756160)
I0422 14:46:12.396755 32015 net.cpp:156] Memory required for data: 2358623040
I0422 14:46:12.396760 32015 layer_factory.hpp:77] Creating layer score-fr
I0422 14:46:12.396776 32015 net.cpp:91] Creating Layer score-fr
I0422 14:46:12.396781 32015 net.cpp:425] score-fr <- fcc7
I0422 14:46:12.396791 32015 net.cpp:399] score-fr -> score-fcc7
I0422 14:46:12.397959 32015 net.cpp:141] Setting up score-fr
I0422 14:46:12.397977 32015 net.cpp:148] Top shape: 15 16 17 17 (69360)
I0422 14:46:12.397982 32015 net.cpp:156] Memory required for data: 2358900480
I0422 14:46:12.397990 32015 layer_factory.hpp:77] Creating layer upsample
I0422 14:46:12.398005 32015 net.cpp:91] Creating Layer upsample
I0422 14:46:12.398011 32015 net.cpp:425] upsample <- score-fcc7
I0422 14:46:12.398020 32015 net.cpp:399] upsample -> bigscore
I0422 14:46:12.414289 32015 net.cpp:141] Setting up upsample
I0422 14:46:12.414340 32015 net.cpp:148] Top shape: 15 16 575 575 (79350000)
I0422 14:46:12.414346 32015 net.cpp:156] Memory required for data: 2676300480
I0422 14:46:12.414379 32015 layer_factory.hpp:77] Creating layer crop
I0422 14:46:12.414402 32015 net.cpp:91] Creating Layer crop
I0422 14:46:12.414409 32015 net.cpp:425] crop <- bigscore
I0422 14:46:12.414418 32015 net.cpp:425] crop <- data_data_0_split_2
I0422 14:46:12.414427 32015 net.cpp:399] crop -> score
I0422 14:46:12.414556 32015 net.cpp:141] Setting up crop
I0422 14:46:12.414579 32015 net.cpp:148] Top shape: 15 16 512 512 (62914560)
I0422 14:46:12.414584 32015 net.cpp:156] Memory required for data: 2927958720
I0422 14:46:12.414590 32015 layer_factory.hpp:77] Creating layer balance
I0422 14:46:12.414602 32015 net.cpp:91] Creating Layer balance
I0422 14:46:12.414607 32015 net.cpp:425] balance <- score
I0422 14:46:12.414613 32015 net.cpp:425] balance <- jointMap_jointMap_0_split_0
I0422 14:46:12.414619 32015 net.cpp:399] balance -> bscore
I0422 14:46:12.414705 32015 net.cpp:141] Setting up balance
I0422 14:46:12.414716 32015 net.cpp:148] Top shape: 15 16 512 512 (62914560)
I0422 14:46:12.414719 32015 net.cpp:156] Memory required for data: 3179616960
I0422 14:46:12.414724 32015 layer_factory.hpp:77] Creating layer loss
I0422 14:46:12.414736 32015 net.cpp:91] Creating Layer loss
I0422 14:46:12.414741 32015 net.cpp:425] loss <- bscore
I0422 14:46:12.414746 32015 net.cpp:425] loss <- jointMap_jointMap_0_split_1
I0422 14:46:12.414753 32015 net.cpp:399] loss -> loss
…
